model.pt (torch, 30095 bytes, 7 tensors)

L1.weight f4 [64, 37]
0	0x3d9d9f17	0.076963596
1	0x3ce5f857	0.02807252
2	0x3cd5118b	0.026009342
3	0x3d427519	0.047474954
4	0x3cc45e28	0.023970678
5	0xbcfbed26	-0.03075273
6	0xbc5f2244	-0.013619009
7	0x3c2ae3d5	0.010430296
8	0x3dee0cf8	0.11623567
9	0x3e1bf443	0.15229897
10	0x3e8e342a	0.27774173
11	0x3e2ce79a	0.16885224
12	0x3e26e295	0.16297372
13	0x3e050254	0.1298917
14	0xbe5458df	-0.20737027
15	0xbbd41e77	-0.0064733583
16	0xbc85ac2b	-0.016317448
17	0x3d30c692	0.04315812
18	0x3dc8c518	0.09803218
19	0x3d8952ae	0.06705223
20	0x3e02e8d4	0.1278413
21	0xbcfa5de9	-0.030562358
22	0x3d9007e5	0.07032756
23	0x3da44ea2	0.080228105
24	0xbe4c773f	-0.19967364
25	0xbc1ff9e0	-0.009764165
26	0x3d020e62	0.031751998
27	0x3d53179b	0.051536184
28	0x3e02daa9	0.12778725
29	0x3c7e677c	0.015527602
30	0x3e43f446	0.19136152
31	0xbd61d360	-0.055133224
32	0xbe6bfc8d	-0.23045559
33	0xbe106118	-0.14099538
34	0xbea84f02	-0.32872778
35	0xbc6f7ada	-0.014616692
36	0x3b6e4573	0.0036357313
37	0xbc014ad9	-0.00789138
38	0x3b10a4ee	0.0022070962
39	0x3c7df280	0.015499711
40	0xba85c616	-0.0010206129
41	0x3c231dba	0.009955818
42	0x3e861bcd	0.26193085
43	0xbbd8e1a3	-0.006618695
44	0xbe95e699	-0.29277495
45	0xbd8937eb	-0.06700119
46	0xbf2af74d	-0.667836
47	0xbb956ef3	-0.0045603453
48	0x3ca5579e	0.02018338
49	0xbc2e0488	-0.0106211975
50	0xbb90f46a	-0.0044236677
51	0x3c8de0fe	0.017319199
52	0x3df6b335	0.120459
53	0x3dea5ff3	0.11444082
54	0x3df3ce0e	0.11904536
55	0x3de1f1c9	0.11032445
56	0xbd1b8465	-0.03796806
57	0x3d24bc89	0.040218864
58	0x3d6f963a	0.058492877
59	0x3be3a241	0.0069468324
60	0xbc3893be	-0.011265693
61	0xbd9e40bb	-0.0772719
62	0x3d919591	0.07108606
63	0x3d8aa4c5	0.067697085
64	0x3d64bf98	0.05584678
65	0xbb8f35c0	-0.004370421
66	0x3c2c0b84	0.010500792
67	0x3d082c2e	0.033245258
68	0x3d11698c	0.035501048
69	0x3d8b3d1f	0.06798767
70	0x3d1773ae	0.036975555
71	0xbc77c8df	-0.015123575
72	0xbbff9463	-0.0077996715
73	0x3b991077	0.004671152
74	0x3e12a2a0	0.14319849
75	0x3d6a6c81	0.057232384
76	0x3cc11cea	0.023573358
77	0x3e54aa97	0.207682
78	0x3bab938e	0.0052360957
79	0x3deb01c8	0.11474949
80	0x3e68e13a	0.22742167
81	0x3d367750	0.04454738
82	0xbd8945de	-0.06702779
83	0xbe251835	-0.16122515
84	0x3ce97d38	0.028502092
85	0xbcca09de	-0.024662908
86	0x3c11190b	0.008856068
87	0xbd8875a8	-0.06663066
88	0xbe305b5d	-0.17222352
89	0x3e0bf80c	0.13668841
90	0x3c4e70b9	0.012600117
91	0x3d2539b8	0.040338248
92	0x3dfd78f7	0.12376588
93	0xbd0b408b	-0.0339971
94	0x3da640bb	0.08117815
95	0xbcb29c8e	-0.021803167
96	0x3de977f6	0.11399834
97	0xbca370ee	-0.01995131
98	0x3c3916ba	0.011296922
99	0x3d98e62b	0.07465776
100	0xbc3d31a4	-0.01154748
101	0x3d94e201	0.07269669
102	0x3da8be78	0.08239454
103	0x3e0d4239	0.13794793
104	0x3d7ec915	0.062203486
105	0xbe291a98	-0.16514051
106	0xbcb84403	-0.022493368
107	0xbcf100fa	-0.029419411
108	0x3ceb335e	0.028711017
109	0x3c8ed021	0.017433228
110	0x38d9c93d	0.0001038485
111	0x3d5c9c0c	0.053859755
112	0xbd832040	-0.064026356
113	0xbde7726e	-0.113011226
114	0xbdb55bff	-0.088554375
115	0x3dc223cf	0.09479486
116	0x3c1d256d	0.0095914425
117	0x3e071004	0.13189703
118	0xbd4197c3	-0.047263872
119	0xbd88edf5	-0.06686012
120	0xbe0e5aa3	-0.13901763
121	0x3d2e4173	0.042542886
122	0x3cca67a1	0.024707617
123	0xbdbf0d25	-0.09328679
124	0x3dca7532	0.098856345
125	0xbdbbd839	-0.091721006
126	0x3d1a8569	0.037724886
127	0xbd6de15a	-0.05807624
128	0x3d4c60ca	0.049896993
129	0x3c792017	0.015205405
130	0x3e277cb8	0.1635617
131	0x3cf087f4	0.029361703
132	0xbdbead26	-0.09310369
133	0x3cf06fca	0.02935018
134	0xbd752b47	-0.059855726
135	0xbe3788f0	-0.17923331
136	0x3dcfad28	0.10140449
137	0x3e8bea23	0.2732707
138	0x3de5783e	0.11204575
139	0x3dae107c	0.08499238
140	0xbda4c3b3	-0.08045139
141	0x3d4860e5	0.04892053
142	0x3c7f8171	0.015594826
143	0x3e589a33	0.21152572
144	0x3e2e100f	0.16998313
145	0x3d52c375	0.051455934
146	0xbe61933d	-0.22028823
147	0x3d3f3539	0.046681616
148	0x3dc649b1	0.09682024
149	0x3d2126ae	0.03934353
150	0x3ce7ddcc	0.028304003
151	0x3a658ae8	0.00087563554
152	0xbe00d482	-0.12581065
153	0xbcdf5f25	-0.027267048
154	0x3e07dcc1	0.13267805
155	0x3e18dbfb	0.14927666
156	0x3e38f15a	0.18060818
157	0x3d3bfe10	0.04589659
158	0xbd1563fd	-0.03647231
159	0xbd17f1fd	-0.037096012
160	0x3b7f6356	0.003896912
161	0x3b0419b1	0.0020156915
162	0x3cf91614	0.030406035
163	0xbacb55da	-0.0015513257
164	0xbc3aa4b6	-0.011391809
165	0x3dbec099	0.09314079
166	0xbd0d9e82	-0.034574993
167	0x394f9bc5	0.00019799087
168	0x3d179ce4	0.037014857
169	0x3ddebb95	0.10875622
170	0x3df907ea	0.121597126
171	0x3d2cd6e9	0.04219714
172	0x3d3ec8f9	0.04657838
173	0x3dce60dc	0.10077068
174	0xbec99390	-0.39370394
175	0xbeb1d020	-0.347291
176	0xbedde613	-0.43339595
177	0xbf9ad8d3	-1.209742
178	0xbd6867ac	-0.056739494
179	0xbda0927b	-0.07840439
180	0xbd069c95	-0.032864172
181	0x3ce90fbe	0.02844989
182	0x3e145c61	0.14488365
183	0x3c3c551a	0.011494899
184	0x3c38ba13	0.011274832
185	0xbd9f0136	-0.07763903
186	0xbe16341f	-0.1466832
187	0x3d048f36	0.03236314
188	0xbde03462	-0.10947491
189	0xbe76b49e	-0.24092337
190	0xbe19a211	-0.1500323
191	0x3db726ac	0.08942923
192	0xbd644ea2	-0.055739053
193	0x3db14b66	0.08656959
194	0xbd9b4f8a	-0.0758353
195	0xbddf5c84	-0.10906318
196	0xbcc0f754	-0.023555435
197	0xbd8775ab	-0.0661424
198	0x3c6ea06d	0.014564616
199	0xbc288d5e	-0.010287611
200	0xbe647779	-0.223112
201	0x3cd8f4b3	0.02648387
202	0x3dc963a9	0.09833462
203	0xbe16f04f	-0.14740108
204	0xbf0af4a6	-0.54279554
205	0xbe107956	-0.14108786
206	0x3c8eb0cc	0.017418288
207	0xbda2ae37	-0.07943385
208	0xbd9d6a9f	-0.07686352
209	0xbeabb962	-0.33539873
210	0xbe90375e	-0.28167242
211	0xbd123bb8	-0.035701483
212	0xbda061dc	-0.07831165
213	0xbe0f701e	-0.14007613
214	0xbdf1e402	-0.11811067
215	0xbddafdd0	-0.10692942
216	0xbb2b8688	-0.0026172716
217	0xbd1b63dc	-0.03793703
218	0xbc432eb7	-0.011912993
219	0xbe176f6f	-0.14788602
220	0xbd410ee0	-0.047133327
221	0xbbc4428e	-0.0059893792
222	0xbeb3c53f	-0.35111424
223	0xbe27af12	-0.16375378
224	0xbcd0d848	-0.025493756
225	0xbe923222	-0.28553873
226	0xbe5ec99b	-0.21756594
227	0xbe71000b	-0.23535173
228	0xbcc18bc7	-0.023626221
229	0xbe6dd948	-0.23227417
230	0xbe4c43bf	-0.19947718
231	0xbd1a0b36	-0.037608348
232	0x3cf1ab5f	0.029500661
233	0xbe5a3715	-0.21310075
234	0xbe1f29fc	-0.1554336
235	0xbe5a107a	-0.21295348
236	0x3d0e6a7f	0.03476953
237	0xbeb13633	-0.34611663
238	0x3e07e757	0.13271843
239	0xbe4dd3a1	-0.20100261
240	0xbd863a71	-0.065541156
241	0xbe946bf4	-0.28988612
242	0xbe9e044a	-0.30862647
243	0xbd7a1a4e	-0.061060242
244	0xbca53669	-0.020167546
245	0xbe14dcf1	-0.14537407
246	0x3e36c5a5	0.17848833
247	0xbd23a2ae	-0.039950065
248	0xbdb02b81	-0.08602048
249	0xbe2cd6d0	-0.1687882
250	0xbd811c02	-0.0630417
251	0x3c8a94af	0.016916601
252	0xbe6c080a	-0.23049942
253	0xbe0baf78	-0.13641155
254	0xbe0a6998	-0.13516843
255	0xbd515907	-0.051110294

L1.bias f4 [64]
0	0xbe2b6ff9	-0.16741933
1	0xbe437ada	-0.19089833
2	0xbe3257b1	-0.17416264
3	0xbe5d12b8	-0.21589172
4	0xbdc179c9	-0.09447057
5	0xbe03b06a	-0.12860265
6	0x3d1f080b	0.03882603
7	0xbd91a3b3	-0.07111301
8	0xbe0024bc	-0.12514013
9	0x3dde81e7	0.10864621
10	0xbd86c8b9	-0.065812536
11	0xbc50072e	-0.012697024
12	0xbd9fc483	-0.078011535
13	0xbba1c491	-0.0049367626
14	0xbe0fb9fa	-0.14035788
15	0xbdff12ba	-0.12454744
16	0xbe3592de	-0.17731807
17	0x3d11d1c7	0.03560045
18	0xbc2062c9	-0.009789177
19	0xbe2c2707	-0.16811763
20	0xbe37a2a7	-0.1793314
21	0x3d7d6cd0	0.06187135
22	0xbd9cb560	-0.07651782
23	0xbe193078	-0.14959896
24	0xbc335814	-0.010946292
25	0xbdec611b	-0.11541959
26	0xbda9fcf4	-0.083002
27	0xbd3c2abe	-0.0459392
28	0xbe508a37	-0.20365225
29	0xbd9ab117	-0.075533085
30	0xbd698fce	-0.05702191
31	0xbe18708a	-0.1488668
32	0xbdeaacb5	-0.114587225
33	0xbdf1152a	-0.11771615
34	0xbe70d310	-0.23518014
35	0x3e093cd4	0.1340211
36	0xbe16c418	-0.14723241
37	0xbd0fbb92	-0.03509099
38	0xbd47e59e	-0.048802964
39	0x3d9d9e57	0.076962166
40	0xbe5bace0	-0.21452665
41	0xbe81b272	-0.25331455
42	0xbc71c70e	-0.014756931
43	0xbc222a47	-0.009897775
44	0xbe460cdc	-0.19340843
45	0xbe5ad4ab	-0.21370189
46	0xbd956e90	-0.07296479
47	0xbe953861	-0.29144576
48	0x3d1db208	0.038499862
49	0x3d4722b8	0.048617095
50	0x3dda477a	0.10658164
51	0xbc98d7c2	-0.018657569
52	0xbe27b554	-0.16377765
53	0xbdf2ef81	-0.11862088
54	0xbd4ba736	-0.04972001
55	0x3c959fb5	0.01826463
56	0xbea90f40	-0.33019447
57	0xbdac35ed	-0.08408723
58	0x3be46d28	0.0069710203
59	0x3e041611	0.12899043
60	0xbda2bfd0	-0.079467416
61	0xbcc700bf	-0.024292348
62	0xbe351d5a	-0.17686978
63	0xbd87eaf1	-0.066366084

L2.weight f4 [64, 64]
0	0xbf06b553	-0.5262043
1	0xbf1a2f81	-0.60228735
2	0xbe9d2f96	-0.30700368
3	0xbed40570	-0.41410398
4	0xbe9cc9ec	-0.30622804
5	0xbc9c0791	-0.019046577
6	0x3d8ed7d0	0.06974757
7	0xbf2a10b7	-0.66431755
8	0xbe1a0e9c	-0.15044636
9	0xbe871060	-0.2637968
10	0xbf0da0c6	-0.55323446
11	0xbf069baa	-0.52581275
12	0xbf090496	-0.5352262
13	0xbcfd8ce6	-0.030950975
14	0xbf07ca49	-0.5304304
15	0xbf0bac7a	-0.54560053
16	0xbed9a7a0	-0.425107
17	0xbf5831b8	-0.84450865
18	0x3c6e9df0	0.014564022
19	0xbf175a5d	-0.5912226
20	0xbeefee1c	-0.4686135
21	0x3dc80b40	0.09767771
22	0xbe475ec2	-0.19469741
23	0xbe793c47	-0.243394
24	0x3e5057fb	0.20346062
25	0xbf345e5d	-0.70456487
26	0xbe1f45f8	-0.15554035
27	0xbf1aaf30	-0.60423565
28	0xbebade50	-0.36497736
29	0xbed9b3a2	-0.4251986
30	0xbea13ee6	-0.314933
31	0xbf0c6b5e	-0.5485133
32	0xbf25344f	-0.6453294
33	0xbecc1383	-0.39858636
34	0xbeea0ef0	-0.4571452
35	0x3e31b183	0.17352872
36	0xbe44532d	-0.19172354
37	0x3c183fbe	0.009292541
38	0xbefb0ff9	-0.49035624
39	0x3e14fb3d	0.14548965
40	0xbdde31cd	-0.108493425
41	0xbea264e5	-0.317176
42	0xbf11e9b3	-0.5699722
43	0x3e048608	0.12941754
44	0xbf075d4a	-0.5287672
45	0xbf22402d	-0.63379174
46	0xbf0ff391	-0.5623103
47	0xbf08ff6a	-0.5351473
48	0xbf2f9803	-0.68591326
49	0x3d509053	0.05091889
50	0xbe048de2	-0.12944749
51	0xbe456370	-0.19276214
52	0xbe2c0f2c	-0.16802663
53	0xbd129dc0	-0.035794973
54	0x3e07f6c9	0.13277735
55	0xbe8bb12f	-0.27283618
56	0xbf0b7006	-0.5446781
57	0xbe8af1dd	-0.27137652
58	0xbebbab26	-0.36654013
59	0x3eb20e25	0.34776416
60	0xbe86a119	-0.26294783
61	0xbdc3392c	-0.09532389
62	0xbecb0d81	-0.3965874
63	0xbea03f07	-0.31298086
64	0xbe6072c7	-0.21918784
65	0x3e373c99	0.1789421
66	0x3dc92896	0.09822194
67	0xbd5787e4	-0.05261983
68	0xbe6027ee	-0.21890232
69	0xbe04ab2e	-0.12955925
70	0xbcb6fad2	-0.022336397
71	0xbe0c4d68	-0.13701403
72	0xbeaf0c35	-0.34189
73	0x3d4e3c91	0.05035073
74	0xbf2fbb18	-0.6864486
75	0xbe0baf87	-0.13641177
76	0x3dddbe65	0.108273305
77	0xbd2ad748	-0.041709214
78	0x3d8f3804	0.06993106
79	0xbf0ef993	-0.5584957
80	0x3e0937ed	0.1340024
81	0xbdea73e6	-0.11447887
82	0xbca666c8	-0.020312682
83	0xbcc40e8d	-0.02393272
84	0xbd066dec	-0.032819673
85	0xbe5f82b0	-0.21827197
86	0x3c4e7a7b	0.012602444
87	0xbd5a2b12	-0.05326373
88	0x3a0aef85	0.00052999734
89	0x3e065d26	0.13121471
90	0xbebb64cb	-0.36600336
91	0x3cdfe7d1	0.027332218
92	0xbdf0a220	-0.11749673
93	0xbe1f2516	-0.15541491
94	0xbd5c14ad	-0.053730655
95	0xbe1a1ae7	-0.15049325
96	0x3d4214bd	0.04738306
97	0xbee25366	-0.44204253
98	0xbdde20a8	-0.108460724
99	0xbdfc678f	-0.1232444
100	0xbdb1fee8	-0.08691198
101	0xbe4be030	-0.1990974
102	0xbe497ac3	-0.19675736
103	0x3e08c82e	0.13357612
104	0x3e5c0c65	0.21489103
105	0x3eaff4b2	0.34366375
106	0x3d7c5fa8	0.061614662
107	0xbde14228	-0.109989464
108	0x3cb60625	0.022219727
109	0xbea77e39	-0.32713488
110	0x3e4fc072	0.20288256
111	0xbd214bae	-0.039378814
112	0x3d92c777	0.07166951
113	0xbe137eca	-0.14403835
114	0xbee4d8a5	-0.44696537
115	0xbee23f1c	-0.44188774
116	0xbe805ade	-0.25069326
117	0x3deed8ea	0.11662467
118	0xbee17d5d	-0.44040957
119	0x3d8eb9a4	0.06969002
120	0xbbeeb4c1	-0.007284731
121	0xbe44397e	-0.19162557
122	0xbeed1bdd	-0.4631032
123	0x3c1fd8a1	0.009756238
124	0xbef05f7d	-0.46947852
125	0x3e3ee95d	0.18643709
126	0x3d024229	0.031801376
127	0xbf438abc	-0.76383567
128	0xbcd39df9	-0.025832163
129	0x3cfb6690	0.030688554
130	0x3dd8c378	0.10584158
131	0x3d20ffbf	0.0393064
132	0x3e46fc2e	0.19432136
133	0xbe001b85	-0.12510498
134	0x3a74b0ba	0.00093341956
135	0xbd90fd55	-0.07079569
136	0x3ce6929e	0.028146084
137	0xbdb9e7bd	-0.09077404
138	0x3e9d9878	0.30780387
139	0x3c85463f	0.016268848
140	0x3c37abb6	0.011210373
141	0x3cbe3d86	0.023222696
142	0xbcedc9f3	-0.029026961
143	0x3db27c06	0.08715062
144	0x3c5af18f	0.013363256
145	0xbca774a6	-0.020441364
146	0x3e010b52	0.12601975
147	0x3ca6e203	0.020371443
148	0xbdb68773	-0.08912554
149	0x3cf89197	0.03034286
150	0x3d91bbde	0.07115911
151	0xbe017619	-0.12642707
152	0x3da0c741	0.07850505
153	0x3cbdd92d	0.023174847
154	0x3e36babb	0.1784467
155	0xbcf160e8	-0.029465154
156	0x3dc45f28	0.09588462
157	0xbd046ddd	-0.032331336
158	0xbe638dd8	-0.22222078
159	0xbd99f72c	-0.075178474
160	0xbdfde139	-0.123964734
161	0x3d90a01e	0.0706179
162	0x3e0c9d22	0.13731816
163	0xbd2b1c0d	-0.0417748
164	0xbd0e4bef	-0.034740385
165	0x3cb7aa24	0.022419997
166	0xbdd80471	-0.10547722
167	0x3c470e44	0.012149397
168	0xbcc65639	-0.024211036
169	0x3e24f192	0.16107777
170	0x3d958a27	0.07301741
171	0xbe46ba2c	-0.19406956
172	0x3d768158	0.060181946
173	0xbdebe682	-0.11518575
174	0xbe2fbc90	-0.17161775
175	0x3d0b2236	0.033968173
176	0x3d9a4d86	0.07534318
177	0xbe8afa97	-0.2714431
178	0xbe608dbb	-0.21929066
179	0x3e533c73	0.20628528
180	0x3cbb6b92	0.022878442
181	0x3cda04ba	0.026613582
182	0xbe4275d8	-0.18990266
183	0xbc60c3b2	-0.013718532
184	0x3c90a88a	0.01765849
185	0xbd1eda7c	-0.03878258
186	0x3e5d4079	0.21606626
187	0xbdd35e3d	-0.10320709
188	0x3e47f2ed	0.19526263
189	0xbe222e21	-0.1583791
190	0x3b0fd24b	0.0021945413
191	0x3e1dcf3d	0.15411086
192	0x3d2df434	0.04246922
193	0x3d903ace	0.07042466
194	0xbcec38c4	-0.028835662
195	0xbca2ab5d	-0.019857103
196	0x3c8aefcb	0.016960045
197	0xbe29148f	-0.16511749
198	0xbdbd57c1	-0.09245253
199	0xbce9a733	-0.02852211
200	0x3e46045f	0.19337605
201	0xbe2e70ad	-0.1703517
202	0x3e8ee263	0.27907094
203	0x3dda7f2f	0.106687896
204	0xbd8a2964	-0.06746176
205	0xbd7d3344	-0.06181647
206	0x3c22f337	0.009945682
207	0x3dfe1761	0.12406803
208	0x3d6456c6	0.055746816
209	0x3cc4cbf8	0.024023041
210	0x3c988c09	0.018621461
211	0x3d371f73	0.044707727
212	0xbdd043f9	-0.10169215
213	0x3e500f6c	0.20318383
214	0xbc2b318f	-0.010448827
215	0xbe243749	-0.16036715
216	0x3d179d7a	0.037015416
217	0xbc2bdff0	-0.010490403
218	0x3de15829	0.11003143
219	0x3e251901	0.1612282
220	0x3db660ee	0.089052066
221	0xbd0ce39a	-0.034396745
222	0xbdefd847	-0.117111735
223	0x3c90050c	0.017580532
224	0xbdfc6eee	-0.12325846
225	0x3cb77201	0.022393228
226	0x3e173220	0.14765215
227	0xbca6bb37	-0.020352943
228	0x3d3971b3	0.045274448
229	0x3d947810	0.072494626
230	0xbd7a356f	-0.061086114
231	0xbc09b2ec	-0.008404475
232	0x3b98f2b1	0.004667603
233	0x3ddf9ae1	0.10918213
234	0x3db71def	0.08941256
235	0xbe9056a9	-0.28191116
236	0x3dc09ab9	0.09404511
237	0x3baa5f0a	0.005199318
238	0xbe03ae83	-0.1285954
239	0x3d9fad5c	0.077967376
240	0xbc5e1988	-0.013555892
241	0xbe20422b	-0.15650241
242	0xbdcc7586	-0.09983353
243	0x3e312d4d	0.17302437
244	0x3db60311	0.088873036
245	0xbe1a86e0	-0.15090513
246	0xbe5077bf	-0.2035818
247	0x3d90ff48	0.07079941
248	0x3d6788a8	0.05652681
249	0xbd96fa94	-0.07372013
250	0x3e1771f2	0.1478956
251	0xbe04b227	-0.12958585
252	0x3dcb92d1	0.099401124
253	0xbd5864bc	-0.052830443
254	0xbccd4945	-0.025059352
255	0x3eb02d61	0.3440962

L2.bias f4 [64]
0	0x3d557966	0.052117728
1	0x3d81c1c6	0.063357875
2	0x3e10d72b	0.1414458
3	0x3e0aa500	0.13539505
4	0xbb7cf950	-0.003860075
5	0x3e1bab6a	0.15202108
6	0x3da51565	0.08060721
7	0x3e02e137	0.12781225
8	0x3e0b542b	0.13606326
9	0x3d779856	0.060448013
10	0x3d210714	0.03931339
11	0x3e08f1ce	0.13373491
12	0xbe921925	-0.2853481
13	0x3dd512e5	0.104039945
14	0x3d8b5101	0.0680256
15	0x3dda1873	0.106491946
16	0xbe100bf1	-0.14067055
17	0x3da231d5	0.07919661
18	0x3e354091	0.17700411
19	0x3db79cfa	0.08965488
20	0x3d6591e7	0.056047346
21	0x3d96d86d	0.07365499
22	0x3e04b70d	0.12960453
23	0x3ccafb07	0.024777902
24	0x3e1b6926	0.1517683
25	0x3dbb0bf0	0.09133136
26	0x3d5bb884	0.053642765
27	0xbe35e3ed	-0.17762728
28	0x3e43201b	0.19055216
29	0x3d844304	0.06458095
30	0x3d3d22df	0.046175834
31	0x3de45e63	0.11150815
32	0x3c6a6893	0.014307159
33	0x3e140d05	0.14458092
34	0x3d106a59	0.03525767
35	0x3e12db13	0.14341383
36	0x3e993df1	0.2993007
37	0x3dda40cc	0.1065689
38	0x3e22e9a5	0.15909441
39	0x3e206ee9	0.15667309
40	0x3dd6bf9d	0.10485766
41	0x3deaa47c	0.11457154
42	0xbce2482e	-0.027622309
43	0x3e21df33	0.158078
44	0x3e4d3642	0.20040229
45	0x3d77b15a	0.06047187
46	0x3e0876db	0.1332659
47	0x3de1e0f1	0.11029232
48	0x3e0ca3d4	0.1373437
49	0x3ddcaa22	0.10774638
50	0x3dbdbe8d	0.0926486
51	0x3d9bdec3	0.07610848
52	0x3e3460cc	0.1761505
53	0x3e0c0a86	0.1367589
54	0x3e2514db	0.16121237
55	0x3e3128e3	0.17300753
56	0x3d6e5f6e	0.058196478
57	0x3df6ab99	0.120444484
58	0x3dedab38	0.11604923
59	0x3de1a2a0	0.110173464
60	0x3dc273d7	0.09494751
61	0x3e509607	0.20369731
62	0x3dae2a63	0.085041784
63	0xbecbc958	-0.3980205

svalue.weight f4 [1, 64]
0	0xbf728587	-0.94734997
1	0x3e975734	0.29558718
2	0x3db10af6	0.08644669
3	0x3dbc1f69	0.091856785
4	0xbf3be4af	-0.7339582
5	0x3dcd6996	0.100299045
6	0x3e0ff50d	0.14058323
7	0x3dc648cf	0.09681856
8	0x3dd0420e	0.10168849
9	0xbf754e68	-0.95822763
10	0x3e8f044f	0.27932975
11	0x3ddc1912	0.10746969
12	0xbf316e5e	-0.6930903
13	0x3dc577be	0.0964198
14	0x3e0750ec	0.13214463
15	0x3df398bb	0.118943654
16	0xbd698a7f	-0.057016846
17	0x3daa70ee	0.08322321
18	0x3daaf9a5	0.08348397
19	0x3e0e8905	0.13919456
20	0x3e327fce	0.17431566
21	0x3e1bc37c	0.1521129
22	0x3de33ca9	0.110955544
23	0x3e596e43	0.21233468
24	0x3dd07349	0.10178239
25	0x3e0157a1	0.12631084
26	0x3e0099c5	0.12558658
27	0xbd714903	-0.05890752
28	0x3da27119	0.07931728
29	0xbf64cdb6	-0.8937639
30	0xbf6397ce	-0.8890351
31	0x3e153d1c	0.14574093
32	0x3e2a8a71	0.16654374
33	0x3dc4cbff	0.09609222
34	0x3e1f63f8	0.15565479
35	0x3ddd649b	0.108102046
36	0xbf6ec7ba	-0.9327351
37	0x3dee3071	0.11630333
38	0x3dbe149a	0.09281273
39	0x3de779b8	0.11302513
40	0x3ddf60f0	0.10907161
41	0x3df359df	0.11882376
42	0xbeda1eb6	-0.42601556
43	0x3da11e4f	0.07867109
44	0x3dbe7c14	0.0930101
45	0x3dc59c24	0.09648922
46	0x3e0cd103	0.13751607
47	0x3dfe85d4	0.124278694
48	0x3dca89aa	0.098895386
49	0x3e0344ae	0.12819168
50	0x3dfcc6c6	0.123426005
51	0x3de3c5b0	0.1112169
52	0x3dae87ee	0.0852202
53	0x3de2a23f	0.11066102
54	0x3df6d63f	0.12052583
55	0x3dc2412b	0.09485086
56	0x3e143042	0.14471534
57	0x3e036688	0.12832081
58	0x3e03ee71	0.12883927
59	0x3dce6048	0.10076958
60	0x3e0d37d5	0.1379083
61	0x3d99dfe1	0.07513405
62	0x3df8e848	0.12153679
63	0xbf887417	-1.0660428

advan.weight f4 [4, 64]
0	0xbf5cf5f1	-0.86312777
1	0x3ef25876	0.47333115
2	0x3d7e6ac8	0.062113553
3	0xbb4b5b0d	-0.0031029612
4	0xbe726ff0	-0.23675513
5	0x3c9af8ea	0.01891752
6	0x3d06f2f6	0.03294655
7	0xbd764b3c	-0.060130343
8	0x3da50ae2	0.08058716
9	0xbf30c3db	-0.6904885
10	0x3e961737	0.29314587
11	0x3d12ee69	0.035871897
12	0x3e4a3710	0.19747567
13	0x3c76c2b5	0.01506107
14	0x3bdc5c70	0.0067248866
15	0xbc44a580	-0.012002349
16	0x3c0fa230	0.008766696
17	0x3c48e4f4	0.012261618
18	0x3d246866	0.040138625
19	0xbca4491e	-0.020054396
20	0xbc67334b	-0.01411135
21	0x3d6186cd	0.055060197
22	0x3c8e7fd4	0.017394938
23	0x3dfa020b	0.12207421
24	0x3c8b6b7b	0.017019024
25	0xbc0cd103	-0.008594754
26	0xbcb1b079	-0.021690594
27	0xbdacd15a	-0.08438368
28	0xbd4933d0	-0.049121678
29	0xbf712b66	-0.94206846
30	0xbdf78055	-0.12085024
31	0x3d804046	0.06262259
32	0x3da6f357	0.08151882
33	0x3d6f7ae9	0.058466826
34	0xbd5ea27e	-0.054354183
35	0x3d64307e	0.05571031
36	0xbe3825d8	-0.17983186
37	0xbd09de5c	-0.033659324
38	0x3da96f2a	0.08273156
39	0x3cf3577a	0.029704798
40	0xb7426e42	-1.15889725e-05
41	0x3d3fccc6	0.046826147
42	0xbe7ffcbc	-0.24998754
43	0x3bdb34f6	0.006689663
44	0xbb9b1f07	-0.0047339234
45	0xbc98ee44	-0.018668301
46	0x3d0a7c46	0.033809923
47	0x3cc9f53d	0.024653072
48	0x3d2de9bd	0.04245924
49	0x3d424d1f	0.04743683
50	0xbb69fda1	-0.0035704153
51	0xbda670d0	-0.08126986
52	0x3dae0487	0.08496957
53	0xba57da66	-0.0008234143
54	0x3dae0505	0.08497051
55	0x3d8021d3	0.062564515
56	0xbd1367d1	-0.03598768
57	0x3b9f32b3	0.0048583387
58	0x3d3c49be	0.045968764
59	0xbd6808ee	-0.05664914
60	0x3d193c8e	0.037411265
61	0x3d70a0a1	0.058746938
62	0x3dcdeeba	0.10055299
63	0xbed56a65	-0.41682735
64	0x3eb6fc4f	0.3573937
65	0x3eec4d71	0.46152833
66	0x3dc837f1	0.09776295
67	0x3d26d715	0.040732462
68	0xbd675769	-0.056479845
69	0xbcaedb8b	-0.02134492
70	0x3c92d21a	0.01792245
71	0xbde05c2c	-0.109550804
72	0x3d5d223d	0.05398773
73	0x3d14a4bc	0.036289915
74	0x3db5d771	0.08878983
75	0x3c84553e	0.016153928
76	0x3eb07b9f	0.34469315
77	0x3bd5eea0	0.0065286905
78	0x3d8cdb14	0.06877723
79	0xbd707f9d	-0.05871545
80	0xbc8c9eec	-0.017165624
81	0x3d9addb0	0.07561815
82	0xbc9b1307	-0.018929971
83	0xbdbb7562	-0.09153248
84	0xbd7da564	-0.061925307
85	0xbda07b28	-0.0783599
86	0xbcc52031	-0.024063202
87	0xbc1551dd	-0.009113756
88	0xbcdc069f	-0.026858626
89	0xbcef8841	-0.029239776
90	0xbc008aab	-0.007845561
91	0x3db4840e	0.0881425
92	0xbdac9b2d	-0.08428035
93	0x3ec650cf	0.38733527
94	0x3df55c97	0.11980551
95	0x3d899b5e	0.06719087
96	0x3d8b945b	0.06815406
97	0xbd1672e0	-0.036730647
98	0xbcb44d1e	-0.022009429
99	0xbb31cb27	-0.0027129145
100	0x3cf9c05e	0.030487236
101	0xbcd750f0	-0.026283711
102	0x3cc84317	0.024446053
103	0xbd0e1e04	-0.034696594
104	0xbc927fb7	-0.017883165
105	0x3d1ae664	0.037817374
106	0xbc450dfe	-0.012027262
107	0x3c10f450	0.008847311
108	0xbce718c5	-0.028210053
109	0x3d05f604	0.032705322
110	0xbc340541	-0.010987581
111	0xbc70a033	-0.014686632
112	0x3de63f9d	0.11242602
113	0xbd932956	-0.071856186
114	0xbbb88d3d	-0.0056320713
115	0xbd824e16	-0.0636255
116	0x3c052f9d	0.008129028
117	0xbb5b7819	-0.0033488332
118	0x3c40bd68	0.011763908
119	0x3d05cbc0	0.032665014
120	0x3d744ab8	0.05964157
121	0xbd23d76a	-0.040000357
122	0xbda810af	-0.08206307
123	0xbd5981ec	-0.05310242
124	0x39f47a66	0.000466305
125	0x3c8241e7	0.015900565
126	0x3d2073c7	0.039172914
127	0x3ed990d0	0.42493296
128	0x3ebdaf30	0.3704772
129	0xbf2d9cee	-0.6781758
130	0x3d54fa42	0.051996477
131	0x3c0ebfcb	0.008712719
132	0x3ed2941a	0.41128618
133	0x3c416dbf	0.011805951
134	0x3cf37643	0.029719478
135	0xbd11636e	-0.035495214
136	0x3dc293e9	0.09500868
137	0x3eba0780	0.36333847
138	0xbf8882f3	-1.0664963
139	0x3d5ea245	0.05435397
140	0xbe4bb21f	-0.19892167
141	0x3ceb6527	0.028734757
142	0x3d36a6e3	0.04459275
143	0x3bceec82	0.006314815
144	0xbdddbdb1	-0.108271964
145	0xbcc4af4e	-0.024009373
146	0x3d309ef6	0.043120347
147	0xbd0b6a49	-0.03403691
148	0xbb8de678	-0.0043304525
149	0xbcb742e5	-0.022370765
150	0xbcad7c78	-0.021177515
151	0xbeee3421	-0.46524146
152	0x3d286cdb	0.041119438
153	0x3c368b70	0.011141643
154	0x3a97469a	0.0011541427
155	0xbd516358	-0.051120132
156	0xbd6b15ea	-0.057393946
157	0x3f080f2d	0.53148156
158	0x3ed116b9	0.4083765
159	0x3dc17314	0.094457775
160	0xbec00070	-0.37500334
161	0x3d13a279	0.036043618
162	0xbd426e50	-0.047468483
163	0x3cf03e17	0.029326482
164	0x3ec52296	0.3850295
165	0x3bd8bae4	0.006614076
166	0x3d6f036f	0.058352884
167	0x3c9ae5ba	0.01890837
168	0xbc9a27d9	-0.018817829
169	0x3d5edfab	0.054412525
170	0x3eee2ada	0.46517068
171	0x3c672cd2	0.014109807
172	0xbc47e837	-0.01220136
173	0x3a9ebe98	0.0012111245
174	0x3bf5014c	0.0074769612
175	0x3d092cf3	0.033490133
176	0x3d976c3f	0.07393693
177	0x3b76aaf0	0.0037638508
178	0x3cfde50f	0.030993013
179	0xbdfcc95b	-0.12343093
180	0x3d9ba318	0.07599467
181	0xbc9506ab	-0.018191656
182	0x3d8a4d82	0.06753065
183	0x3d4d290a	0.050087966
184	0x3c4c24cd	0.012459946
185	0x3b154c1d	0.0022780963
186	0x3cfb8fad	0.030708158
187	0xbd1c4887	-0.038155105
188	0x3d6a4a3e	0.05719971
189	0x3d8b39f4	0.06798163
190	0x3dd5bbda	0.104362205
191	0x3dd7fd8d	0.10546408
192	0x3ef70fa6	0.48254126
193	0xbe0244bb	-0.12721531
194	0x3da13b92	0.0787269
195	0xbbfdd07a	-0.0077457996
196	0x3db356e9	0.08756811
197	0xbd291a50	-0.04128486
198	0xbc929912	-0.017895255
199	0xbd494049	-0.049133573
200	0x3dda8c7f	0.10671329
201	0x3e3bab87	0.18327151
202	0x3ed0556e	0.40690178
203	0x3c7c2d7d	0.015391705
204	0xbee79f1e	-0.45238584
205	0x3d1f7da8	0.038938195
206	0x3dd2ccd8	0.10292977
207	0xbc438f8a	-0.011936078
208	0xbdcdefc3	-0.100554965
209	0x3db7d452	0.08976044
210	0x3beff681	0.0073230867
211	0x3c5ddcd9	0.013541424
212	0x3dba4df3	0.09096899
213	0xbcdc3741	-0.026881816
214	0xbd5efcf2	-0.054440446
215	0x3e3b6350	0.18299603
216	0xbd654f89	-0.055984054
217	0x3d8195fb	0.06327435
218	0x3d47892e	0.04871481
219	0xbd65dc9a	-0.056118585
220	0xbd8a7c0e	-0.06761943
221	0x3e18d6f1	0.14925744
222	0x3d7b0c5e	0.06129109
223	0x3d7c9267	0.061663058
224	0x3dfc1ae8	0.123098195
225	0x3d9df100	0.07711983
226	0x3d8acc85	0.0677729
227	0xbcccc2cc	-0.02499523
228	0x3d8f0720	0.06983781
229	0xbcfbaf04	-0.030723102
230	0x3d92134d	0.071325876
231	0x3c2219be	0.009893833
232	0x3d1a7c35	0.03771611
233	0xbc3256ab	-0.010884921
234	0xbe8dab9d	-0.27669993
235	0xbc5a5119	-0.013324999
236	0xbd3d9012	-0.046279974
237	0x3d2c9d31	0.042142097
238	0xbd182580	-0.037145138
239	0xbd233977	-0.039849725
240	0x3c199872	0.009374725
241	0x3adb86b4	0.0016748519
242	0x3ce0e0fd	0.027451033
243	0x3a82ae4b	0.0009970156
244	0x3d394544	0.045232072
245	0xbc5bc702	-0.013414146
246	0xbe06eab6	-0.13175473
247	0xbce6c041	-0.028167846
248	0xbd991a06	-0.07475667
249	0xbd3bc26f	-0.045839723
250	0xbd9606f8	-0.07325548
251	0xbd031b54	-0.032008484
252	0xbc1494fd	-0.009068725
253	0x3d32192e	0.043481044
254	0x3d942e47	0.07235389
255	0x3e47ee57	0.19524513

advan.bias f4 [4]
0	0xbda44216	-0.080204174
1	0xbbdb2cd5	-0.006688694
2	0xbd151c5b	-0.036403995
3	0xbd999b4e	-0.07500325
